Neural Network Tools for STM32AI v1.7.0 (STM.ai v8.0.1-19450)
Created date          : 2023-06-18 15:03:25
Parameters            : validate --name network -m /media/master/wext/msc_studies/second_semester/microcontrollers/project/stm32/code/models/euler/depth_full_quant.tflite --type tflite --compression none --verbosity 1 --workspace /tmp/mxAI_workspace663556451048617713050436366626038 --output /home/master/.stm32cubemx/network_output --allocate-inputs --allocate-outputs

Exec/report summary (validate)
-------------------------------------------------------------------------------------------------------------------------------------------------
model file         :   /media/master/wext/msc_studies/second_semester/microcontrollers/project/stm32/code/models/euler/depth_full_quant.tflite   
type               :   tflite                                                                                                                    
c_name             :   network                                                                                                                   
compression        :   none                                                                                                                      
options            :   allocate-inputs, allocate-outputs                                                                                         
optimization       :   balanced                                                                                                                  
target/series      :   generic                                                                                                                   
workspace dir      :   /tmp/mxAI_workspace663556451048617713050436366626038                                                                      
output dir         :   /home/master/.stm32cubemx/network_output                                                                                  
model_fmt          :   ss/sa per-channel                                                                                                         
model_name         :   depth_full_quant                                                                                                          
model_hash         :   8e301cf3302471339b6c7d33f8c058a7                                                                                          
params #           :   285,481 items (281.25 KiB)                                                                                                
-------------------------------------------------------------------------------------------------------------------------------------------------
input 1/1          :   'serving_default_input0' (domain:activations/**default**)                                                                 
                   :   12288 items, 12.00 KiB, ai_u8, s=0.00392157, zp=0, (1,64,64,3)                                                            
output 1/1         :   'conversion_53' (domain:activations/**default**)                                                                          
                   :   4096 items, 4.00 KiB, ai_u8, s=0.00781250, zp=128, (1,64,64,1)                                                            
macc               :   66,233,497                                                                                                                
weights (ro)       :   288,676 B (281.91 KiB) (1 segment) / -853,248(-74.7%) vs float model                                                      
activations (rw)   :   1,032,192 B (1008.00 KiB) (1 segment) *                                                                                   
ram (total)        :   1,032,192 B (1008.00 KiB) = 1,032,192 + 0 + 0                                                                             
-------------------------------------------------------------------------------------------------------------------------------------------------
(*) 'input'/'output' buffers can be used from the activations buffer

Model name - depth_full_quant ['serving_default_input0'] ['conversion_53']
------ -------------------------------------------------------------- ---------------------- --------------- ----------- ---------------------------------------------- --- --------------- ---------------------- ----------------------------------------------- 
m_id   layer (type,original)                                          oshape                 param/size             macc                                   connected to   | c_size          c_macc                 c_type                                          
------ -------------------------------------------------------------- ---------------------- --------------- ----------- ---------------------------------------------- --- --------------- ---------------------- ----------------------------------------------- 
0      serving_default_input0 (Input, )                               [b:1,h:64,w:64,c:3]                                                                                 |                 +24,576(+100.0%)       converter_oi8[0]                                
       conversion_0 (Conversion, QUANTIZE)                            [b:1,h:64,w:64,c:3]                         24,576                         serving_default_input0   |                 -24,576(-100.0%)       
------ -------------------------------------------------------------- ---------------------- --------------- ----------- ---------------------------------------------- --- --------------- ---------------------- ----------------------------------------------- 
1      conv2d_1 (Conv2D, CONV_2D)                                     [b:1,h:32,w:32,c:24]   672/744             663,576                                   conversion_0   |                                        optimized_conv2d_oi8[1]                         
       nl_1_nl (Nonlinearity, CONV_2D)                                [b:1,h:32,w:32,c:24]                        24,576                                       conv2d_1   |                 -24,576(-100.0%)       
------ -------------------------------------------------------------- ---------------------- --------------- ----------- ---------------------------------------------- --- --------------- ---------------------- ----------------------------------------------- 
2      conv2d_2 (Conv2D, CONV_2D)                                     [b:1,h:16,w:16,c:48]   1,200/1,344         294,960                                        nl_1_nl   |                                        conv2d_oi8[9]                                   
------ -------------------------------------------------------------- ---------------------- --------------- ----------- ---------------------------------------------- --- --------------- ---------------------- ----------------------------------------------- 
3      conv2d_3 (Conv2D, DEPTHWISE_CONV_2D)                           [b:1,h:32,w:32,c:24]   240/312             221,208                                        nl_1_nl   |                                        pad_oi8/conv2d_oi8[2, 3]                        
------ -------------------------------------------------------------- ---------------------- --------------- ----------- ---------------------------------------------- --- --------------- ---------------------- ----------------------------------------------- 
4      conv2d_4 (Conv2D, CONV_2D)                                     [b:1,h:32,w:32,c:48]   1,200/1,344       1,179,696                                       conv2d_3   |                                        conv2d_oi8[4]                                   
       nl_4_nl (Nonlinearity, CONV_2D)                                [b:1,h:32,w:32,c:48]                        49,152                                       conv2d_4   |                 -49,152(-100.0%)       
------ -------------------------------------------------------------- ---------------------- --------------- ----------- ---------------------------------------------- --- --------------- ---------------------- ----------------------------------------------- 
5      conv2d_5 (Conv2D, DEPTHWISE_CONV_2D)                           [b:1,h:32,w:32,c:48]   480/624             442,416                                        nl_4_nl   |                                        pad_oi8/conv2d_oi8[5, 6]                        
------ -------------------------------------------------------------- ---------------------- --------------- ----------- ---------------------------------------------- --- --------------- ---------------------- ----------------------------------------------- 
6      conv2d_6 (Conv2D, CONV_2D)                                     [b:1,h:32,w:32,c:48]   2,352/2,496       2,359,344                                       conv2d_5   |                                        conv2d_oi8[7]                                   
------ -------------------------------------------------------------- ---------------------- --------------- ----------- ---------------------------------------------- --- --------------- ---------------------- ----------------------------------------------- 
7      pool_7 (Pool, MAX_POOL_2D)                                     [b:1,h:16,w:16,c:48]                       110,592                                       conv2d_6   |                                        pool_oi8[8]                                     
------ -------------------------------------------------------------- ---------------------- --------------- ----------- ---------------------------------------------- --- --------------- ---------------------- ----------------------------------------------- 
8      eltwise_8 (Eltwise, ADD)                                       [b:1,h:16,w:16,c:48]                        12,288                                         pool_7   |                                        eltwise_integer_oi8[10]                         
                                                                                                                                                               conv2d_2   | 
------ -------------------------------------------------------------- ---------------------- --------------- ----------- ---------------------------------------------- --- --------------- ---------------------- ----------------------------------------------- 
9      nl_9 (Nonlinearity, RELU)                                      [b:1,h:16,w:16,c:48]                        12,288                                      eltwise_8   |                                        nl_oi8[12]                                      
------ -------------------------------------------------------------- ---------------------- --------------- ----------- ---------------------------------------------- --- --------------- ---------------------- ----------------------------------------------- 
10     conv2d_10 (Conv2D, DEPTHWISE_CONV_2D)                          [b:1,h:16,w:16,c:48]   480/624             110,640                                           nl_9   |                                        pad_oi8/conv2d_oi8[13, 14]                      
------ -------------------------------------------------------------- ---------------------- --------------- ----------- ---------------------------------------------- --- --------------- ---------------------- ----------------------------------------------- 
11     conv2d_11 (Conv2D, CONV_2D)                                    [b:1,h:16,w:16,c:96]   4,704/4,992       1,179,744                                      conv2d_10   |                                        conv2d_oi8[15]                                  
       nl_11_nl (Nonlinearity, CONV_2D)                               [b:1,h:16,w:16,c:96]                        24,576                                      conv2d_11   |                 -24,576(-100.0%)       
------ -------------------------------------------------------------- ---------------------- --------------- ----------- ---------------------------------------------- --- --------------- ---------------------- ----------------------------------------------- 
12     conv2d_12 (Conv2D, DEPTHWISE_CONV_2D)                          [b:1,h:16,w:16,c:96]   960/1,248           221,280                                       nl_11_nl   |                                        pad_oi8/conv2d_oi8[16, 17]                      
------ -------------------------------------------------------------- ---------------------- --------------- ----------- ---------------------------------------------- --- --------------- ---------------------- ----------------------------------------------- 
13     conv2d_13 (Conv2D, CONV_2D)                                    [b:1,h:16,w:16,c:96]   9,312/9,600       2,359,392                                      conv2d_12   |                                        conv2d_oi8[18]                                  
------ -------------------------------------------------------------- ---------------------- --------------- ----------- ---------------------------------------------- --- --------------- ---------------------- ----------------------------------------------- 
14     pool_14 (Pool, MAX_POOL_2D)                                    [b:1,h:8,w:8,c:96]                          55,296                                      conv2d_13   |                                        pool_oi8[19]                                    
------ -------------------------------------------------------------- ---------------------- --------------- ----------- ---------------------------------------------- --- --------------- ---------------------- ----------------------------------------------- 
15     conv2d_15 (Conv2D, CONV_2D)                                    [b:1,h:8,w:8,c:96]     4,704/4,992         295,008                                      eltwise_8   |                                        conv2d_oi8[11]                                  
------ -------------------------------------------------------------- ---------------------- --------------- ----------- ---------------------------------------------- --- --------------- ---------------------- ----------------------------------------------- 
16     eltwise_16 (Eltwise, ADD)                                      [b:1,h:8,w:8,c:96]                           6,144                                        pool_14   |                 +12,288(+200.0%)       eltwise_integer_oi8/converter_of32[20, 21]      
                                                                                                                                                              conv2d_15   | 
------ -------------------------------------------------------------- ---------------------- --------------- ----------- ---------------------------------------------- --- --------------- ---------------------- ----------------------------------------------- 
17     nl_17 (Nonlinearity, RELU)                                     [b:1,h:8,w:8,c:96]                           6,144                                     eltwise_16   |                                        nl_oi8[25]                                      
------ -------------------------------------------------------------- ---------------------- --------------- ----------- ---------------------------------------------- --- --------------- ---------------------- ----------------------------------------------- 
19     conv2d_19 (ConvTranspose, TRANSPOSE_CONV)                      [b:1,h:8,w:8,c:96]     82,944/82,944                                                        nl_17   | +384(+0.5%)     +5,308,512(+100.0%)    pad_oi8/conv2d_oi8[26, 27]                      
------ -------------------------------------------------------------- ---------------------- --------------- ----------- ---------------------------------------------- --- --------------- ---------------------- ----------------------------------------------- 
20     model_batch_normalization_5_FusedBatchNormV3 (Placeholder, )   [b:None,c:96]          96/96                                                                        |                 +6,144(+100.0%)        eltwise_integer_oi8[28]                         
       eltwise_20 (Eltwise, ADD)                                      [b:1,h:8,w:8,c:96]                           6,144                                      conv2d_19   |                 -6,144(-100.0%)        
                                                                                                                           model_batch_normalization_5_FusedBatchNormV3   | 
       nl_20_nl (Nonlinearity, ADD)                                   [b:1,h:8,w:8,c:96]                           6,144                                     eltwise_20   |                 -6,144(-100.0%)        
------ -------------------------------------------------------------- ---------------------- --------------- ----------- ---------------------------------------------- --- --------------- ---------------------- ----------------------------------------------- 
22     conv2d_22 (ConvTranspose, TRANSPOSE_CONV)                      [b:1,h:8,w:8,c:96]     82,944/82,944                                                     nl_20_nl   | +384(+0.5%)     +5,320,800(+100.0%)    pad_oi8/conv2d_oi8/converter_of32[29, 30, 31]   
------ -------------------------------------------------------------- ---------------------- --------------- ----------- ---------------------------------------------- --- --------------- ---------------------- ----------------------------------------------- 
23     upsample_23 (Upsample, RESIZE_NEAREST_NEIGHBOR)                [b:1,h:16,w:16,c:96]                                                                    conv2d_22   |                 +49,152(+100.0%)       upsample_of32/converter_oi8[32, 33]             
------ -------------------------------------------------------------- ---------------------- --------------- ----------- ---------------------------------------------- --- --------------- ---------------------- ----------------------------------------------- 
24     upsample_24 (Upsample, RESIZE_NEAREST_NEIGHBOR)                [b:1,h:16,w:16,c:96]                                                                   eltwise_16   |                 +49,152(+100.0%)       upsample_of32/converter_oi8[22, 23]             
------ -------------------------------------------------------------- ---------------------- --------------- ----------- ---------------------------------------------- --- --------------- ---------------------- ----------------------------------------------- 
25     conv2d_25 (Conv2D, CONV_2D)                                    [b:1,h:16,w:16,c:96]   9,312/9,600       2,359,392                                    upsample_24   |                                        conv2d_oi8[24]                                  
------ -------------------------------------------------------------- ---------------------- --------------- ----------- ---------------------------------------------- --- --------------- ---------------------- ----------------------------------------------- 
26     eltwise_26 (Eltwise, ADD)                                      [b:1,h:16,w:16,c:96]                        24,576                                    upsample_23   |                 +49,152(+200.0%)       eltwise_integer_oi8/converter_of32[34, 35]      
                                                                                                                                                              conv2d_25   | 
------ -------------------------------------------------------------- ---------------------- --------------- ----------- ---------------------------------------------- --- --------------- ---------------------- ----------------------------------------------- 
27     nl_27 (Nonlinearity, RELU)                                     [b:1,h:16,w:16,c:96]                        24,576                                     eltwise_26   |                                        nl_oi8[39]                                      
------ -------------------------------------------------------------- ---------------------- --------------- ----------- ---------------------------------------------- --- --------------- ---------------------- ----------------------------------------------- 
31     conv2d_31 (ConvTranspose, TRANSPOSE_CONV)                      [b:1,h:16,w:16,c:48]   41,472/41,472                                                        nl_27   | +192(+0.5%)     +10,616,880(+100.0%)   pad_oi8/conv2d_oi8[40, 41]                      
------ -------------------------------------------------------------- ---------------------- --------------- ----------- ---------------------------------------------- --- --------------- ---------------------- ----------------------------------------------- 
32     model_batch_normalization_7_FusedBatchNormV3 (Placeholder, )   [b:None,c:48]          48/48                                                                        |                 +12,288(+100.0%)       eltwise_integer_oi8[42]                         
       eltwise_32 (Eltwise, ADD)                                      [b:1,h:16,w:16,c:48]                        12,288                                      conv2d_31   |                 -12,288(-100.0%)       
                                                                                                                           model_batch_normalization_7_FusedBatchNormV3   | 
       nl_32_nl (Nonlinearity, ADD)                                   [b:1,h:16,w:16,c:48]                        12,288                                     eltwise_32   |                 -12,288(-100.0%)       
------ -------------------------------------------------------------- ---------------------- --------------- ----------- ---------------------------------------------- --- --------------- ---------------------- ----------------------------------------------- 
34     conv2d_34 (ConvTranspose, TRANSPOSE_CONV)                      [b:1,h:16,w:16,c:48]   20,736/20,736                                                     nl_32_nl   | +192(+0.9%)     +5,333,040(+100.0%)    pad_oi8/conv2d_oi8/converter_of32[43, 44, 45]   
------ -------------------------------------------------------------- ---------------------- --------------- ----------- ---------------------------------------------- --- --------------- ---------------------- ----------------------------------------------- 
35     upsample_35 (Upsample, RESIZE_NEAREST_NEIGHBOR)                [b:1,h:32,w:32,c:48]                                                                    conv2d_34   |                 +98,304(+100.0%)       upsample_of32/converter_oi8[46, 47]             
------ -------------------------------------------------------------- ---------------------- --------------- ----------- ---------------------------------------------- --- --------------- ---------------------- ----------------------------------------------- 
36     upsample_36 (Upsample, RESIZE_NEAREST_NEIGHBOR)                [b:1,h:32,w:32,c:96]                                                                   eltwise_26   |                 +196,608(+100.0%)      upsample_of32/converter_oi8[36, 37]             
------ -------------------------------------------------------------- ---------------------- --------------- ----------- ---------------------------------------------- --- --------------- ---------------------- ----------------------------------------------- 
37     conv2d_37 (Conv2D, CONV_2D)                                    [b:1,h:32,w:32,c:48]   4,656/4,800       4,718,640                                    upsample_36   |                                        conv2d_oi8[38]                                  
------ -------------------------------------------------------------- ---------------------- --------------- ----------- ---------------------------------------------- --- --------------- ---------------------- ----------------------------------------------- 
38     eltwise_38 (Eltwise, ADD)                                      [b:1,h:32,w:32,c:48]                        49,152                                    upsample_35   |                 +98,304(+200.0%)       eltwise_integer_oi8/converter_of32[48, 49]      
                                                                                                                                                              conv2d_37   | 
------ -------------------------------------------------------------- ---------------------- --------------- ----------- ---------------------------------------------- --- --------------- ---------------------- ----------------------------------------------- 
39     nl_39 (Nonlinearity, RELU)                                     [b:1,h:32,w:32,c:48]                        49,152                                     eltwise_38   |                                        nl_oi8[53]                                      
------ -------------------------------------------------------------- ---------------------- --------------- ----------- ---------------------------------------------- --- --------------- ---------------------- ----------------------------------------------- 
43     conv2d_43 (ConvTranspose, TRANSPOSE_CONV)                      [b:1,h:32,w:32,c:24]   10,368/10,368                                                        nl_39   | +96(+0.9%)      +10,616,856(+100.0%)   pad_oi8/conv2d_oi8[54, 55]                      
------ -------------------------------------------------------------- ---------------------- --------------- ----------- ---------------------------------------------- --- --------------- ---------------------- ----------------------------------------------- 
44     model_batch_normalization_9_FusedBatchNormV3 (Placeholder, )   [b:None,c:24]          24/24                                                                        |                 +24,576(+100.0%)       eltwise_integer_oi8[56]                         
       eltwise_44 (Eltwise, ADD)                                      [b:1,h:32,w:32,c:24]                        24,576                                      conv2d_43   |                 -24,576(-100.0%)       
                                                                                                                           model_batch_normalization_9_FusedBatchNormV3   | 
       nl_44_nl (Nonlinearity, ADD)                                   [b:1,h:32,w:32,c:24]                        24,576                                     eltwise_44   |                 -24,576(-100.0%)       
------ -------------------------------------------------------------- ---------------------- --------------- ----------- ---------------------------------------------- --- --------------- ---------------------- ----------------------------------------------- 
46     conv2d_46 (ConvTranspose, TRANSPOSE_CONV)                      [b:1,h:32,w:32,c:24]   5,184/5,184                                                       nl_44_nl   | +96(+1.9%)      +5,357,592(+100.0%)    pad_oi8/conv2d_oi8/converter_of32[57, 58, 59]   
------ -------------------------------------------------------------- ---------------------- --------------- ----------- ---------------------------------------------- --- --------------- ---------------------- ----------------------------------------------- 
47     upsample_47 (Upsample, RESIZE_NEAREST_NEIGHBOR)                [b:1,h:64,w:64,c:24]                                                                    conv2d_46   |                 +196,608(+100.0%)      upsample_of32/converter_oi8[60, 61]             
------ -------------------------------------------------------------- ---------------------- --------------- ----------- ---------------------------------------------- --- --------------- ---------------------- ----------------------------------------------- 
48     upsample_48 (Upsample, RESIZE_NEAREST_NEIGHBOR)                [b:1,h:64,w:64,c:48]                                                                   eltwise_38   |                 +393,216(+100.0%)      upsample_of32/converter_oi8[50, 51]             
------ -------------------------------------------------------------- ---------------------- --------------- ----------- ---------------------------------------------- --- --------------- ---------------------- ----------------------------------------------- 
49     conv2d_49 (Conv2D, CONV_2D)                                    [b:1,h:64,w:64,c:24]   1,176/1,248       4,718,616                                    upsample_48   |                                        conv2d_oi8[52]                                  
------ -------------------------------------------------------------- ---------------------- --------------- ----------- ---------------------------------------------- --- --------------- ---------------------- ----------------------------------------------- 
50     eltwise_50 (Eltwise, ADD)                                      [b:1,h:64,w:64,c:24]                        98,304                                    upsample_47   |                                        eltwise_integer_oi8[62]                         
                                                                                                                                                              conv2d_49   | 
------ -------------------------------------------------------------- ---------------------- --------------- ----------- ---------------------------------------------- --- --------------- ---------------------- ----------------------------------------------- 
51     conv2d_51 (Conv2D, CONV_2D)                                    [b:1,h:64,w:64,c:1]    217/220             884,737                                     eltwise_50   | -220(-100.0%)   -884,737(-100.0%)      
------ -------------------------------------------------------------- ---------------------- --------------- ----------- ---------------------------------------------- --- --------------- ---------------------- ----------------------------------------------- 
52     nl_52 (Nonlinearity, TANH)                                     [b:1,h:64,w:64,c:1]                         40,960                                      conv2d_51   | +220(+100.0%)   +847,873(+2070.0%)     conv2d_oi8[63]                                  
------ -------------------------------------------------------------- ---------------------- --------------- ----------- ---------------------------------------------- --- --------------- ---------------------- ----------------------------------------------- 
53     conversion_53 (Conversion, QUANTIZE)                           [b:1,h:64,w:64,c:1]                          8,192                                          nl_52   |                                        converter_ou8[o][64]                            
------ -------------------------------------------------------------- ---------------------- --------------- ----------- ---------------------------------------------- --- --------------- ---------------------- ----------------------------------------------- 
model/c-model: macc=22,715,209/66,233,497 +43,518,288(+191.6%) weights=288,004/288,676 +672(+0.2%) activations=--/1,032,192 io=--/0



Generated C-graph summary
------------------------------------------------------------------------------------------------------------------------
model name            : depth_full_quant
c-name                : network
c-node #              : 65
c-array #             : 130
activations size      : 1032192 (1 segment)
weights size          : 288676 (1 segment)
macc                  : 66233497
inputs                : ['serving_default_input0_output']
outputs               : ['conversion_53_output']

C-Arrays (130)
------ ---------------------------------------------- --------------- ------------------------- --------------- ------------- --------- 
c_id   name (*_array)                                 item/size       domain/mem-pool           c-type          fmt           comment   
------ ---------------------------------------------- --------------- ------------------------- --------------- ------------- --------- 
0      eltwise_26_output                              24576/24576     activations/**default**   int8_t          sa8                     
1      eltwise_26_0_conversion_output                 24576/98304     activations/**default**   float           float32                 
2      upsample_36_output                             98304/393216    activations/**default**   float           float32                 
3      upsample_36_0_conversion_output                98304/98304     activations/**default**   int8_t          sa8                     
4      conv2d_37_output                               49152/49152     activations/**default**   int8_t          sa8                     
5      nl_27_output                                   24576/24576     activations/**default**   int8_t          sa8                     
6      conv2d_31_pad_before_output                    31104/31104     activations/**default**   int8_t          sa8                     
7      conv2d_31_output                               12288/12288     activations/**default**   int8_t          sa8                     
8      eltwise_32_output                              12288/12288     activations/**default**   int8_t          sa8                     
9      conv2d_34_pad_before_output                    15552/15552     activations/**default**   int8_t          sa8                     
10     conv2d_34_output                               12288/12288     activations/**default**   int8_t          sa8                     
11     conv2d_34_0_conversion_output                  12288/49152     activations/**default**   float           float32                 
12     upsample_35_output                             49152/196608    activations/**default**   float           float32                 
13     upsample_35_0_conversion_output                49152/49152     activations/**default**   int8_t          sa8                     
14     eltwise_38_output                              49152/49152     activations/**default**   int8_t          sa8                     
15     eltwise_38_0_conversion_output                 49152/196608    activations/**default**   float           float32                 
16     upsample_48_output                             196608/786432   activations/**default**   float           float32                 
17     upsample_48_0_conversion_output                196608/196608   activations/**default**   int8_t          sa8                     
18     conv2d_49_output                               98304/98304     activations/**default**   int8_t          sa8                     
19     nl_39_output                                   49152/49152     activations/**default**   int8_t          sa8                     
20     conv2d_43_pad_before_output                    55488/55488     activations/**default**   int8_t          sa8                     
21     conv2d_43_output                               24576/24576     activations/**default**   int8_t          sa8                     
22     eltwise_44_output                              24576/24576     activations/**default**   int8_t          sa8                     
23     conv2d_46_pad_before_output                    27744/27744     activations/**default**   int8_t          sa8                     
24     conv2d_46_output                               24576/24576     activations/**default**   int8_t          sa8                     
25     conv2d_46_0_conversion_output                  24576/98304     activations/**default**   float           float32                 
26     upsample_47_output                             98304/393216    activations/**default**   float           float32                 
27     upsample_47_0_conversion_output                98304/98304     activations/**default**   int8_t          sa8                     
28     eltwise_50_output                              98304/98304     activations/**default**   int8_t          ss8                     
29     conv2d_51_output                               4096/4096       activations/**default**   int8_t          ss8                     
30     conversion_53_output                           4096/4096       activations/**default**   uint8_t         ua8           /output   
31     model_batch_normalization_9_FusedBatchNormV3   24/24           weights/weights           const int8_t    sa8                     
32     model_batch_normalization_7_FusedBatchNormV3   48/48           weights/weights           const int8_t    sa8                     
33     model_batch_normalization_5_FusedBatchNormV3   96/96           weights/weights           const int8_t    sa8                     
34     conv2d_1_weights                               648/648         weights/weights           const int8_t    ss8/ch(24)              
35     conv2d_1_bias                                  24/96           weights/weights           const int32_t   ss32/ch(24)             
36     conv2d_3_weights                               216/216         weights/weights           const int8_t    ss8/ch(24)              
37     conv2d_3_bias                                  24/96           weights/weights           const int32_t   ss32/ch(24)             
38     conv2d_4_weights                               1152/1152       weights/weights           const int8_t    ss8/ch(48)              
39     conv2d_4_bias                                  48/192          weights/weights           const int32_t   ss32/ch(48)             
40     conv2d_5_weights                               432/432         weights/weights           const int8_t    ss8/ch(48)              
41     conv2d_5_bias                                  48/192          weights/weights           const int32_t   ss32/ch(48)             
42     conv2d_6_weights                               2304/2304       weights/weights           const int8_t    ss8/ch(48)              
43     conv2d_6_bias                                  48/192          weights/weights           const int32_t   ss32/ch(48)             
44     conv2d_2_weights                               1152/1152       weights/weights           const int8_t    ss8/ch(48)              
45     conv2d_2_bias                                  48/192          weights/weights           const int32_t   ss32/ch(48)             
46     conv2d_15_weights                              4608/4608       weights/weights           const int8_t    ss8/ch(96)              
47     conv2d_15_bias                                 96/384          weights/weights           const int32_t   ss32/ch(96)             
48     conv2d_10_weights                              432/432         weights/weights           const int8_t    ss8/ch(48)              
49     conv2d_10_bias                                 48/192          weights/weights           const int32_t   ss32/ch(48)             
50     conv2d_11_weights                              4608/4608       weights/weights           const int8_t    ss8/ch(96)              
51     conv2d_11_bias                                 96/384          weights/weights           const int32_t   ss32/ch(96)             
52     conv2d_12_weights                              864/864         weights/weights           const int8_t    ss8/ch(96)              
53     conv2d_12_bias                                 96/384          weights/weights           const int32_t   ss32/ch(96)             
54     conv2d_13_weights                              9216/9216       weights/weights           const int8_t    ss8/ch(96)              
55     conv2d_13_bias                                 96/384          weights/weights           const int32_t   ss32/ch(96)             
56     conv2d_25_weights                              9216/9216       weights/weights           const int8_t    ss8/ch(96)              
57     conv2d_25_bias                                 96/384          weights/weights           const int32_t   ss32/ch(96)             
58     conv2d_19_weights                              82944/82944     weights/weights           const int8_t    ss8/ch(96)              
59     conv2d_19_bias                                 96/384          weights/weights           const int32_t   ss32                    
60     conv2d_22_weights                              82944/82944     weights/weights           const int8_t    ss8/ch(96)              
61     conv2d_37_weights                              4608/4608       weights/weights           const int8_t    ss8/ch(48)              
62     conv2d_37_bias                                 48/192          weights/weights           const int32_t   ss32/ch(48)             
63     conv2d_31_weights                              41472/41472     weights/weights           const int8_t    ss8/ch(48)              
64     conv2d_31_bias                                 48/192          weights/weights           const int32_t   ss32                    
65     conv2d_34_weights                              20736/20736     weights/weights           const int8_t    ss8/ch(48)              
66     conv2d_49_weights                              1152/1152       weights/weights           const int8_t    ss8/ch(24)              
67     conv2d_49_bias                                 24/96           weights/weights           const int32_t   ss32/ch(24)             
68     conv2d_43_weights                              10368/10368     weights/weights           const int8_t    ss8/ch(24)              
69     conv2d_43_bias                                 24/96           weights/weights           const int32_t   ss32                    
70     conv2d_46_weights                              5184/5184       weights/weights           const int8_t    ss8/ch(24)              
71     conv2d_51_weights                              216/216         weights/weights           const int8_t    ss8                     
72     conv2d_51_bias                                 1/4             weights/weights           const int32_t   ss32                    
73     conv2d_1_scratch0                              1740/1740       activations/**default**   int8_t          s8                      
74     conv2d_3_scratch0                              889/889         activations/**default**   int8_t          s8                      
75     conv2d_4_scratch0                              576/576         activations/**default**   int8_t          s8                      
76     conv2d_5_scratch0                              1777/1777       activations/**default**   int8_t          s8                      
77     conv2d_6_scratch0                              672/672         activations/**default**   int8_t          s8                      
78     conv2d_2_scratch0                              2880/2880       activations/**default**   int8_t          s8                      
79     conv2d_15_scratch0                             6272/6272       activations/**default**   int8_t          s8                      
80     conv2d_10_scratch0                             1777/1777       activations/**default**   int8_t          s8                      
81     conv2d_11_scratch0                             1152/1152       activations/**default**   int8_t          s8                      
82     conv2d_12_scratch0                             3553/3553       activations/**default**   int8_t          s8                      
83     conv2d_13_scratch0                             1344/1344       activations/**default**   int8_t          s8                      
84     conv2d_25_scratch0                             1344/1344       activations/**default**   int8_t          s8                      
85     conv2d_19_scratch0                             9536/9536       activations/**default**   int8_t          s8                      
86     conv2d_22_scratch0                             9536/9536       activations/**default**   int8_t          s8                      
87     conv2d_37_scratch0                             864/864         activations/**default**   int8_t          s8                      
88     conv2d_31_scratch0                             9056/9056       activations/**default**   int8_t          s8                      
89     conv2d_34_scratch0                             7328/7328       activations/**default**   int8_t          s8                      
90     conv2d_49_scratch0                             432/432         activations/**default**   int8_t          s8                      
91     conv2d_43_scratch0                             7088/7088       activations/**default**   int8_t          s8                      
92     conv2d_46_scratch0                             6224/6224       activations/**default**   int8_t          s8                      
93     conv2d_51_scratch0                             1300/1300       activations/**default**   int8_t          s8                      
94     conv2d_51_scratch1                             4096/4096       activations/**default**   int8_t          sa8                     
95     serving_default_input0_output                  12288/12288     activations/**default**   uint8_t         ua8           /input    
96     conversion_0_output                            12288/12289     activations/**default**   int8_t          sa8                     
97     conv2d_1_output                                24576/24576     activations/**default**   int8_t          sa8                     
98     conv2d_3_pad_before_output                     27744/27744     activations/**default**   int8_t          sa8                     
99     conv2d_3_output                                24576/24576     activations/**default**   int8_t          sa8                     
100    conv2d_4_output                                49152/49152     activations/**default**   int8_t          sa8                     
101    conv2d_5_pad_before_output                     55488/55488     activations/**default**   int8_t          sa8                     
102    conv2d_5_output                                49152/49152     activations/**default**   int8_t          sa8                     
103    conv2d_6_output                                49152/49152     activations/**default**   int8_t          sa8                     
104    pool_7_output                                  12288/12288     activations/**default**   int8_t          sa8                     
105    conv2d_2_output                                12288/12288     activations/**default**   int8_t          sa8                     
106    eltwise_8_output                               12288/12288     activations/**default**   int8_t          sa8                     
107    conv2d_15_output                               6144/6144       activations/**default**   int8_t          sa8                     
108    nl_9_output                                    12288/12288     activations/**default**   int8_t          sa8                     
109    conv2d_10_pad_before_output                    15552/15552     activations/**default**   int8_t          sa8                     
110    conv2d_10_output                               12288/12288     activations/**default**   int8_t          ss8                     
111    conv2d_11_output                               24576/24576     activations/**default**   int8_t          sa8                     
112    conv2d_12_pad_before_output                    31104/31104     activations/**default**   int8_t          sa8                     
113    conv2d_12_output                               24576/24576     activations/**default**   int8_t          sa8                     
114    conv2d_13_output                               24576/24576     activations/**default**   int8_t          ss8                     
115    pool_14_output                                 6144/6144       activations/**default**   int8_t          ss8                     
116    eltwise_16_output                              6144/6144       activations/**default**   int8_t          sa8                     
117    eltwise_16_0_conversion_output                 6144/24576      activations/**default**   float           float32                 
118    upsample_24_output                             24576/98304     activations/**default**   float           float32                 
119    upsample_24_0_conversion_output                24576/24576     activations/**default**   int8_t          sa8                     
120    conv2d_25_output                               24576/24576     activations/**default**   int8_t          sa8                     
121    nl_17_output                                   6144/6144       activations/**default**   int8_t          sa8                     
122    conv2d_19_pad_before_output                    9600/9600       activations/**default**   int8_t          sa8                     
123    conv2d_19_output                               6144/6144       activations/**default**   int8_t          sa8                     
124    eltwise_20_output                              6144/6144       activations/**default**   int8_t          sa8                     
125    conv2d_22_pad_before_output                    9600/9600       activations/**default**   int8_t          sa8                     
126    conv2d_22_output                               6144/6144       activations/**default**   int8_t          ss8                     
127    conv2d_22_0_conversion_output                  6144/24576      activations/**default**   float           float32                 
128    upsample_23_output                             24576/98304     activations/**default**   float           float32                 
129    upsample_23_0_conversion_output                24576/24576     activations/**default**   int8_t          ss8                     
------ ---------------------------------------------- --------------- ------------------------- --------------- ------------- --------- 

C-Layers (65)
------ -------------------------- ---- ------------------- ---------- ------- ------------------------------------------------- -------------------- 
c_id   name (*_layer)             id   layer_type          macc       rom     tensors                                           shape (array id)     
------ -------------------------- ---- ------------------- ---------- ------- ------------------------------------------------- -------------------- 
0      conversion_0               0    converter           24576      0       I: serving_default_input0_output                  (1,64,64,3) (95)     
                                                                              O: conversion_0_output                            (1,64,64,3) (96)     
------ -------------------------- ---- ------------------- ---------- ------- ------------------------------------------------- -------------------- 
1      conv2d_1                   1    optimized_conv2d    663576     744     I: conversion_0_output                            (1,64,64,3) (96)     
                                                                              S: conv2d_1_scratch0                                                   
                                                                              W: conv2d_1_weights                               (3,24,3,3) (34)      
                                                                              W: conv2d_1_bias                                  (1,1,1,24) (35)      
                                                                              O: conv2d_1_output                                (1,32,32,24) (97)    
------ -------------------------- ---- ------------------- ---------- ------- ------------------------------------------------- -------------------- 
2      conv2d_3_pad_before        3    pad                 0          0       I: conv2d_1_output                                (1,32,32,24) (97)    
                                                                              O: conv2d_3_pad_before_output                     (1,34,34,24) (98)    
------ -------------------------- ---- ------------------- ---------- ------- ------------------------------------------------- -------------------- 
3      conv2d_3                   3    conv2d              221208     312     I: conv2d_3_pad_before_output                     (1,34,34,24) (98)    
                                                                              S: conv2d_3_scratch0                                                   
                                                                              W: conv2d_3_weights                               (24,1,3,3) (36)      
                                                                              W: conv2d_3_bias                                  (1,1,1,24) (37)      
                                                                              O: conv2d_3_output                                (1,32,32,24) (99)    
------ -------------------------- ---- ------------------- ---------- ------- ------------------------------------------------- -------------------- 
4      conv2d_4                   4    conv2d              1179696    1344    I: conv2d_3_output                                (1,32,32,24) (99)    
                                                                              S: conv2d_4_scratch0                                                   
                                                                              W: conv2d_4_weights                               (24,48,1,1) (38)     
                                                                              W: conv2d_4_bias                                  (1,1,1,48) (39)      
                                                                              O: conv2d_4_output                                (1,32,32,48) (100)   
------ -------------------------- ---- ------------------- ---------- ------- ------------------------------------------------- -------------------- 
5      conv2d_5_pad_before        5    pad                 0          0       I: conv2d_4_output                                (1,32,32,48) (100)   
                                                                              O: conv2d_5_pad_before_output                     (1,34,34,48) (101)   
------ -------------------------- ---- ------------------- ---------- ------- ------------------------------------------------- -------------------- 
6      conv2d_5                   5    conv2d              442416     624     I: conv2d_5_pad_before_output                     (1,34,34,48) (101)   
                                                                              S: conv2d_5_scratch0                                                   
                                                                              W: conv2d_5_weights                               (48,1,3,3) (40)      
                                                                              W: conv2d_5_bias                                  (1,1,1,48) (41)      
                                                                              O: conv2d_5_output                                (1,32,32,48) (102)   
------ -------------------------- ---- ------------------- ---------- ------- ------------------------------------------------- -------------------- 
7      conv2d_6                   6    conv2d              2359344    2496    I: conv2d_5_output                                (1,32,32,48) (102)   
                                                                              S: conv2d_6_scratch0                                                   
                                                                              W: conv2d_6_weights                               (48,48,1,1) (42)     
                                                                              W: conv2d_6_bias                                  (1,1,1,48) (43)      
                                                                              O: conv2d_6_output                                (1,32,32,48) (103)   
------ -------------------------- ---- ------------------- ---------- ------- ------------------------------------------------- -------------------- 
8      pool_7                     7    pool                110592     0       I: conv2d_6_output                                (1,32,32,48) (103)   
                                                                              O: pool_7_output                                  (1,16,16,48) (104)   
------ -------------------------- ---- ------------------- ---------- ------- ------------------------------------------------- -------------------- 
9      conv2d_2                   2    conv2d              294960     1344    I: conv2d_1_output                                (1,32,32,24) (97)    
                                                                              S: conv2d_2_scratch0                                                   
                                                                              W: conv2d_2_weights                               (24,48,1,1) (44)     
                                                                              W: conv2d_2_bias                                  (1,1,1,48) (45)      
                                                                              O: conv2d_2_output                                (1,16,16,48) (105)   
------ -------------------------- ---- ------------------- ---------- ------- ------------------------------------------------- -------------------- 
10     eltwise_8                  8    eltwise_integer     12288      0       I: pool_7_output                                  (1,16,16,48) (104)   
                                                                              I: conv2d_2_output                                (1,16,16,48) (105)   
                                                                              O: eltwise_8_output                               (1,16,16,48) (106)   
------ -------------------------- ---- ------------------- ---------- ------- ------------------------------------------------- -------------------- 
11     conv2d_15                  15   conv2d              295008     4992    I: eltwise_8_output                               (1,16,16,48) (106)   
                                                                              S: conv2d_15_scratch0                                                  
                                                                              W: conv2d_15_weights                              (48,96,1,1) (46)     
                                                                              W: conv2d_15_bias                                 (1,1,1,96) (47)      
                                                                              O: conv2d_15_output                               (1,8,8,96) (107)     
------ -------------------------- ---- ------------------- ---------- ------- ------------------------------------------------- -------------------- 
12     nl_9                       9    nl                  12288      0       I: eltwise_8_output                               (1,16,16,48) (106)   
                                                                              O: nl_9_output                                    (1,16,16,48) (108)   
------ -------------------------- ---- ------------------- ---------- ------- ------------------------------------------------- -------------------- 
13     conv2d_10_pad_before       10   pad                 0          0       I: nl_9_output                                    (1,16,16,48) (108)   
                                                                              O: conv2d_10_pad_before_output                    (1,18,18,48) (109)   
------ -------------------------- ---- ------------------- ---------- ------- ------------------------------------------------- -------------------- 
14     conv2d_10                  10   conv2d              110640     624     I: conv2d_10_pad_before_output                    (1,18,18,48) (109)   
                                                                              S: conv2d_10_scratch0                                                  
                                                                              W: conv2d_10_weights                              (48,1,3,3) (48)      
                                                                              W: conv2d_10_bias                                 (1,1,1,48) (49)      
                                                                              O: conv2d_10_output                               (1,16,16,48) (110)   
------ -------------------------- ---- ------------------- ---------- ------- ------------------------------------------------- -------------------- 
15     conv2d_11                  11   conv2d              1179744    4992    I: conv2d_10_output                               (1,16,16,48) (110)   
                                                                              S: conv2d_11_scratch0                                                  
                                                                              W: conv2d_11_weights                              (48,96,1,1) (50)     
                                                                              W: conv2d_11_bias                                 (1,1,1,96) (51)      
                                                                              O: conv2d_11_output                               (1,16,16,96) (111)   
------ -------------------------- ---- ------------------- ---------- ------- ------------------------------------------------- -------------------- 
16     conv2d_12_pad_before       12   pad                 0          0       I: conv2d_11_output                               (1,16,16,96) (111)   
                                                                              O: conv2d_12_pad_before_output                    (1,18,18,96) (112)   
------ -------------------------- ---- ------------------- ---------- ------- ------------------------------------------------- -------------------- 
17     conv2d_12                  12   conv2d              221280     1248    I: conv2d_12_pad_before_output                    (1,18,18,96) (112)   
                                                                              S: conv2d_12_scratch0                                                  
                                                                              W: conv2d_12_weights                              (96,1,3,3) (52)      
                                                                              W: conv2d_12_bias                                 (1,1,1,96) (53)      
                                                                              O: conv2d_12_output                               (1,16,16,96) (113)   
------ -------------------------- ---- ------------------- ---------- ------- ------------------------------------------------- -------------------- 
18     conv2d_13                  13   conv2d              2359392    9600    I: conv2d_12_output                               (1,16,16,96) (113)   
                                                                              S: conv2d_13_scratch0                                                  
                                                                              W: conv2d_13_weights                              (96,96,1,1) (54)     
                                                                              W: conv2d_13_bias                                 (1,1,1,96) (55)      
                                                                              O: conv2d_13_output                               (1,16,16,96) (114)   
------ -------------------------- ---- ------------------- ---------- ------- ------------------------------------------------- -------------------- 
19     pool_14                    14   pool                55296      0       I: conv2d_13_output                               (1,16,16,96) (114)   
                                                                              O: pool_14_output                                 (1,8,8,96) (115)     
------ -------------------------- ---- ------------------- ---------- ------- ------------------------------------------------- -------------------- 
20     eltwise_16                 16   eltwise_integer     6144       0       I: pool_14_output                                 (1,8,8,96) (115)     
                                                                              I: conv2d_15_output                               (1,8,8,96) (107)     
                                                                              O: eltwise_16_output                              (1,8,8,96) (116)     
------ -------------------------- ---- ------------------- ---------- ------- ------------------------------------------------- -------------------- 
21     eltwise_16_0_conversion    16   converter           12288      0       I: eltwise_16_output                              (1,8,8,96) (116)     
                                                                              O: eltwise_16_0_conversion_output                 (1,8,8,96) (117)     
------ -------------------------- ---- ------------------- ---------- ------- ------------------------------------------------- -------------------- 
22     upsample_24                24   upsample            0          0       I: eltwise_16_0_conversion_output                 (1,8,8,96) (117)     
                                                                              O: upsample_24_output                             (1,16,16,96) (118)   
------ -------------------------- ---- ------------------- ---------- ------- ------------------------------------------------- -------------------- 
23     upsample_24_0_conversion   24   converter           49152      0       I: upsample_24_output                             (1,16,16,96) (118)   
                                                                              O: upsample_24_0_conversion_output                (1,16,16,96) (119)   
------ -------------------------- ---- ------------------- ---------- ------- ------------------------------------------------- -------------------- 
24     conv2d_25                  25   conv2d              2359392    9600    I: upsample_24_0_conversion_output                (1,16,16,96) (119)   
                                                                              S: conv2d_25_scratch0                                                  
                                                                              W: conv2d_25_weights                              (96,96,1,1) (56)     
                                                                              W: conv2d_25_bias                                 (1,1,1,96) (57)      
                                                                              O: conv2d_25_output                               (1,16,16,96) (120)   
------ -------------------------- ---- ------------------- ---------- ------- ------------------------------------------------- -------------------- 
25     nl_17                      17   nl                  6144       0       I: eltwise_16_output                              (1,8,8,96) (116)     
                                                                              O: nl_17_output                                   (1,8,8,96) (121)     
------ -------------------------- ---- ------------------- ---------- ------- ------------------------------------------------- -------------------- 
26     conv2d_19_pad_before       19   pad                 0          0       I: nl_17_output                                   (1,8,8,96) (121)     
                                                                              O: conv2d_19_pad_before_output                    (1,10,10,96) (122)   
------ -------------------------- ---- ------------------- ---------- ------- ------------------------------------------------- -------------------- 
27     conv2d_19                  19   conv2d              5308512    83328   I: conv2d_19_pad_before_output                    (1,10,10,96) (122)   
                                                                              S: conv2d_19_scratch0                                                  
                                                                              W: conv2d_19_weights                              (96,96,3,3) (58)     
                                                                              W: conv2d_19_bias                                 (1,1,1,96) (59)      
                                                                              O: conv2d_19_output                               (1,8,8,96) (123)     
------ -------------------------- ---- ------------------- ---------- ------- ------------------------------------------------- -------------------- 
28     eltwise_20                 20   eltwise_integer     6144       96      I: conv2d_19_output                               (1,8,8,96) (123)     
                                                                              I: model_batch_normalization_5_FusedBatchNormV3   (1,1,1,96) (33)      
                                                                              O: eltwise_20_output                              (1,8,8,96) (124)     
------ -------------------------- ---- ------------------- ---------- ------- ------------------------------------------------- -------------------- 
29     conv2d_22_pad_before       22   pad                 0          0       I: eltwise_20_output                              (1,8,8,96) (124)     
                                                                              O: conv2d_22_pad_before_output                    (1,10,10,96) (125)   
------ -------------------------- ---- ------------------- ---------- ------- ------------------------------------------------- -------------------- 
30     conv2d_22                  22   conv2d              5308512    83328   I: conv2d_22_pad_before_output                    (1,10,10,96) (125)   
                                                                              S: conv2d_22_scratch0                                                  
                                                                              W: conv2d_22_weights                              (96,96,3,3) (60)     
                                                                              W: conv2d_19_bias                                 (1,1,1,96) (59)      
                                                                              O: conv2d_22_output                               (1,8,8,96) (126)     
------ -------------------------- ---- ------------------- ---------- ------- ------------------------------------------------- -------------------- 
31     conv2d_22_0_conversion     22   converter           12288      0       I: conv2d_22_output                               (1,8,8,96) (126)     
                                                                              O: conv2d_22_0_conversion_output                  (1,8,8,96) (127)     
------ -------------------------- ---- ------------------- ---------- ------- ------------------------------------------------- -------------------- 
32     upsample_23                23   upsample            0          0       I: conv2d_22_0_conversion_output                  (1,8,8,96) (127)     
                                                                              O: upsample_23_output                             (1,16,16,96) (128)   
------ -------------------------- ---- ------------------- ---------- ------- ------------------------------------------------- -------------------- 
33     upsample_23_0_conversion   23   converter           49152      0       I: upsample_23_output                             (1,16,16,96) (128)   
                                                                              O: upsample_23_0_conversion_output                (1,16,16,96) (129)   
------ -------------------------- ---- ------------------- ---------- ------- ------------------------------------------------- -------------------- 
34     eltwise_26                 26   eltwise_integer     24576      0       I: upsample_23_0_conversion_output                (1,16,16,96) (129)   
                                                                              I: conv2d_25_output                               (1,16,16,96) (120)   
                                                                              O: eltwise_26_output                              (1,16,16,96) (0)     
------ -------------------------- ---- ------------------- ---------- ------- ------------------------------------------------- -------------------- 
35     eltwise_26_0_conversion    26   converter           49152      0       I: eltwise_26_output                              (1,16,16,96) (0)     
                                                                              O: eltwise_26_0_conversion_output                 (1,16,16,96) (1)     
------ -------------------------- ---- ------------------- ---------- ------- ------------------------------------------------- -------------------- 
36     upsample_36                36   upsample            0          0       I: eltwise_26_0_conversion_output                 (1,16,16,96) (1)     
                                                                              O: upsample_36_output                             (1,32,32,96) (2)     
------ -------------------------- ---- ------------------- ---------- ------- ------------------------------------------------- -------------------- 
37     upsample_36_0_conversion   36   converter           196608     0       I: upsample_36_output                             (1,32,32,96) (2)     
                                                                              O: upsample_36_0_conversion_output                (1,32,32,96) (3)     
------ -------------------------- ---- ------------------- ---------- ------- ------------------------------------------------- -------------------- 
38     conv2d_37                  37   conv2d              4718640    4800    I: upsample_36_0_conversion_output                (1,32,32,96) (3)     
                                                                              S: conv2d_37_scratch0                                                  
                                                                              W: conv2d_37_weights                              (96,48,1,1) (61)     
                                                                              W: conv2d_37_bias                                 (1,1,1,48) (62)      
                                                                              O: conv2d_37_output                               (1,32,32,48) (4)     
------ -------------------------- ---- ------------------- ---------- ------- ------------------------------------------------- -------------------- 
39     nl_27                      27   nl                  24576      0       I: eltwise_26_output                              (1,16,16,96) (0)     
                                                                              O: nl_27_output                                   (1,16,16,96) (5)     
------ -------------------------- ---- ------------------- ---------- ------- ------------------------------------------------- -------------------- 
40     conv2d_31_pad_before       31   pad                 0          0       I: nl_27_output                                   (1,16,16,96) (5)     
                                                                              O: conv2d_31_pad_before_output                    (1,18,18,96) (6)     
------ -------------------------- ---- ------------------- ---------- ------- ------------------------------------------------- -------------------- 
41     conv2d_31                  31   conv2d              10616880   41664   I: conv2d_31_pad_before_output                    (1,18,18,96) (6)     
                                                                              S: conv2d_31_scratch0                                                  
                                                                              W: conv2d_31_weights                              (96,48,3,3) (63)     
                                                                              W: conv2d_31_bias                                 (1,1,1,48) (64)      
                                                                              O: conv2d_31_output                               (1,16,16,48) (7)     
------ -------------------------- ---- ------------------- ---------- ------- ------------------------------------------------- -------------------- 
42     eltwise_32                 32   eltwise_integer     12288      48      I: conv2d_31_output                               (1,16,16,48) (7)     
                                                                              I: model_batch_normalization_7_FusedBatchNormV3   (1,1,1,48) (32)      
                                                                              O: eltwise_32_output                              (1,16,16,48) (8)     
------ -------------------------- ---- ------------------- ---------- ------- ------------------------------------------------- -------------------- 
43     conv2d_34_pad_before       34   pad                 0          0       I: eltwise_32_output                              (1,16,16,48) (8)     
                                                                              O: conv2d_34_pad_before_output                    (1,18,18,48) (9)     
------ -------------------------- ---- ------------------- ---------- ------- ------------------------------------------------- -------------------- 
44     conv2d_34                  34   conv2d              5308464    20928   I: conv2d_34_pad_before_output                    (1,18,18,48) (9)     
                                                                              S: conv2d_34_scratch0                                                  
                                                                              W: conv2d_34_weights                              (48,48,3,3) (65)     
                                                                              W: conv2d_31_bias                                 (1,1,1,48) (64)      
                                                                              O: conv2d_34_output                               (1,16,16,48) (10)    
------ -------------------------- ---- ------------------- ---------- ------- ------------------------------------------------- -------------------- 
45     conv2d_34_0_conversion     34   converter           24576      0       I: conv2d_34_output                               (1,16,16,48) (10)    
                                                                              O: conv2d_34_0_conversion_output                  (1,16,16,48) (11)    
------ -------------------------- ---- ------------------- ---------- ------- ------------------------------------------------- -------------------- 
46     upsample_35                35   upsample            0          0       I: conv2d_34_0_conversion_output                  (1,16,16,48) (11)    
                                                                              O: upsample_35_output                             (1,32,32,48) (12)    
------ -------------------------- ---- ------------------- ---------- ------- ------------------------------------------------- -------------------- 
47     upsample_35_0_conversion   35   converter           98304      0       I: upsample_35_output                             (1,32,32,48) (12)    
                                                                              O: upsample_35_0_conversion_output                (1,32,32,48) (13)    
------ -------------------------- ---- ------------------- ---------- ------- ------------------------------------------------- -------------------- 
48     eltwise_38                 38   eltwise_integer     49152      0       I: upsample_35_0_conversion_output                (1,32,32,48) (13)    
                                                                              I: conv2d_37_output                               (1,32,32,48) (4)     
                                                                              O: eltwise_38_output                              (1,32,32,48) (14)    
------ -------------------------- ---- ------------------- ---------- ------- ------------------------------------------------- -------------------- 
49     eltwise_38_0_conversion    38   converter           98304      0       I: eltwise_38_output                              (1,32,32,48) (14)    
                                                                              O: eltwise_38_0_conversion_output                 (1,32,32,48) (15)    
------ -------------------------- ---- ------------------- ---------- ------- ------------------------------------------------- -------------------- 
50     upsample_48                48   upsample            0          0       I: eltwise_38_0_conversion_output                 (1,32,32,48) (15)    
                                                                              O: upsample_48_output                             (1,64,64,48) (16)    
------ -------------------------- ---- ------------------- ---------- ------- ------------------------------------------------- -------------------- 
51     upsample_48_0_conversion   48   converter           393216     0       I: upsample_48_output                             (1,64,64,48) (16)    
                                                                              O: upsample_48_0_conversion_output                (1,64,64,48) (17)    
------ -------------------------- ---- ------------------- ---------- ------- ------------------------------------------------- -------------------- 
52     conv2d_49                  49   conv2d              4718616    1248    I: upsample_48_0_conversion_output                (1,64,64,48) (17)    
                                                                              S: conv2d_49_scratch0                                                  
                                                                              W: conv2d_49_weights                              (48,24,1,1) (66)     
                                                                              W: conv2d_49_bias                                 (1,1,1,24) (67)      
                                                                              O: conv2d_49_output                               (1,64,64,24) (18)    
------ -------------------------- ---- ------------------- ---------- ------- ------------------------------------------------- -------------------- 
53     nl_39                      39   nl                  49152      0       I: eltwise_38_output                              (1,32,32,48) (14)    
                                                                              O: nl_39_output                                   (1,32,32,48) (19)    
------ -------------------------- ---- ------------------- ---------- ------- ------------------------------------------------- -------------------- 
54     conv2d_43_pad_before       43   pad                 0          0       I: nl_39_output                                   (1,32,32,48) (19)    
                                                                              O: conv2d_43_pad_before_output                    (1,34,34,48) (20)    
------ -------------------------- ---- ------------------- ---------- ------- ------------------------------------------------- -------------------- 
55     conv2d_43                  43   conv2d              10616856   10464   I: conv2d_43_pad_before_output                    (1,34,34,48) (20)    
                                                                              S: conv2d_43_scratch0                                                  
                                                                              W: conv2d_43_weights                              (48,24,3,3) (68)     
                                                                              W: conv2d_43_bias                                 (1,1,1,24) (69)      
                                                                              O: conv2d_43_output                               (1,32,32,24) (21)    
------ -------------------------- ---- ------------------- ---------- ------- ------------------------------------------------- -------------------- 
56     eltwise_44                 44   eltwise_integer     24576      24      I: conv2d_43_output                               (1,32,32,24) (21)    
                                                                              I: model_batch_normalization_9_FusedBatchNormV3   (1,1,1,24) (31)      
                                                                              O: eltwise_44_output                              (1,32,32,24) (22)    
------ -------------------------- ---- ------------------- ---------- ------- ------------------------------------------------- -------------------- 
57     conv2d_46_pad_before       46   pad                 0          0       I: eltwise_44_output                              (1,32,32,24) (22)    
                                                                              O: conv2d_46_pad_before_output                    (1,34,34,24) (23)    
------ -------------------------- ---- ------------------- ---------- ------- ------------------------------------------------- -------------------- 
58     conv2d_46                  46   conv2d              5308440    5280    I: conv2d_46_pad_before_output                    (1,34,34,24) (23)    
                                                                              S: conv2d_46_scratch0                                                  
                                                                              W: conv2d_46_weights                              (24,24,3,3) (70)     
                                                                              W: conv2d_43_bias                                 (1,1,1,24) (69)      
                                                                              O: conv2d_46_output                               (1,32,32,24) (24)    
------ -------------------------- ---- ------------------- ---------- ------- ------------------------------------------------- -------------------- 
59     conv2d_46_0_conversion     46   converter           49152      0       I: conv2d_46_output                               (1,32,32,24) (24)    
                                                                              O: conv2d_46_0_conversion_output                  (1,32,32,24) (25)    
------ -------------------------- ---- ------------------- ---------- ------- ------------------------------------------------- -------------------- 
60     upsample_47                47   upsample            0          0       I: conv2d_46_0_conversion_output                  (1,32,32,24) (25)    
                                                                              O: upsample_47_output                             (1,64,64,24) (26)    
------ -------------------------- ---- ------------------- ---------- ------- ------------------------------------------------- -------------------- 
61     upsample_47_0_conversion   47   converter           196608     0       I: upsample_47_output                             (1,64,64,24) (26)    
                                                                              O: upsample_47_0_conversion_output                (1,64,64,24) (27)    
------ -------------------------- ---- ------------------- ---------- ------- ------------------------------------------------- -------------------- 
62     eltwise_50                 50   eltwise_integer     98304      0       I: upsample_47_0_conversion_output                (1,64,64,24) (27)    
                                                                              I: conv2d_49_output                               (1,64,64,24) (18)    
                                                                              O: eltwise_50_output                              (1,64,64,24) (28)    
------ -------------------------- ---- ------------------- ---------- ------- ------------------------------------------------- -------------------- 
63     conv2d_51                  52   conv2d              888833     220     I: eltwise_50_output                              (1,64,64,24) (28)    
                                                                              S: conv2d_51_scratch0                                                  
                                                                              S: conv2d_51_scratch1                                                  
                                                                              W: conv2d_51_weights                              (24,1,3,3) (71)      
                                                                              W: conv2d_51_bias                                 (1,1,1,1) (72)       
                                                                              O: conv2d_51_output                               (1,64,64,1) (29)     
------ -------------------------- ---- ------------------- ---------- ------- ------------------------------------------------- -------------------- 
64     conversion_53              53   converter           8192       0       I: conv2d_51_output                               (1,64,64,1) (29)     
                                                                              O: conversion_53_output                           (1,64,64,1) (30)     
------ -------------------------- ---- ------------------- ---------- ------- ------------------------------------------------- -------------------- 
 
Setting validation data...
 generating random data, size=10, seed=42, range=(0, 1)
 I[1]: (10, 64, 64, 3)/uint8, min/max=[0, 255], mean/std=[127.377, 73.567], scale=0.00392157 zp=0, serving_default_input0
 No output/reference samples are provided
 
Running the STM AI c-model (AI RUNNER)...(name=network, mode=x86)

 X86 shared lib (/tmp/mxAI_workspace663556451048617713050436366626038/inspector_network/workspace/lib/libai_network.so) ['network']
  
  Summary "network" - ['network']
  -----------------------------------------------------------------------------------------------------------------
  inputs/ouputs      :   1/1                                                                                       
  input_1            :   input_1, (1,64,64,3), uint8, 12,288 bytes, S:0.00392157 O:0 US, in activations buffer     
  output_1           :   output_1, (1,64,64,1), uint8, 4,096 bytes, S:0.00781250 O:128 UA, in activations buffer   
  n_nodes            :   65                                                                                        
  compile_datetime   :   Jun 18 2023 15:03:24                                                                      
  activations        :   1032192                                                                                   
  weights            :   288676                                                                                    
  macc               :   66233497                                                                                  
  -----------------------------------------------------------------------------------------------------------------
  runtime            :   STM.AI 8.0.0 (Tools 8.0.1)                                                                
  capabilities       :   IO_ONLY, PER_LAYER, PER_LAYER_WITH_DATA                                                   
  device             :   x86_64 x86_64 (Linux)                                                                     
 
 NOTE: duration and exec time per layer is just an indication. They are dependent of the HOST-machine work-load.

  
  STM.AI Profiling results v1.2 - network
  ---------------------------------------------------------------
  nb sample(s)    :   10                                         
  duration        :   23.283ms by sample (21.782/25.440/1.100)   
  macc            :   66233497                                   
  ---------------------------------------------------------------
  HOST duration   :   0.262s (total)                             
  ---------------------------------------------------------------
   
   Inference time per node
   ---------------------------------------------------------------------------
   c_id    m_id   type                 dur (ms)     %            name         
   ---------------------------------------------------------------------------
   0       0      NL (0x107)                0.004      0.0%      ai_node_0    
   1       1      Conv2dPool (0x109)        0.242      1.0%      ai_node_1    
   2       3      Pad (0x116)               0.006      0.0%      ai_node_2    
   3       3      Conv2D (0x103)            0.218      0.9%      ai_node_3    
   4       4      Conv2D (0x103)            0.443      1.9%      ai_node_4    
   5       5      Pad (0x116)               0.007      0.0%      ai_node_5    
   6       5      Conv2D (0x103)            0.434      1.9%      ai_node_6    
   7       6      Conv2D (0x103)            0.774      3.3%      ai_node_7    
   8       7      Pool (0x10b)              0.061      0.3%      ai_node_8    
   9       2      Conv2D (0x103)            0.108      0.5%      ai_node_9    
   10      8      EltwiseInt (0x114)        0.066      0.3%      ai_node_10   
   11      15     Conv2D (0x103)            0.098      0.4%      ai_node_11   
   12      9      NL (0x107)                0.005      0.0%      ai_node_12   
   13      10     Pad (0x116)               0.003      0.0%      ai_node_13   
   14      10     Conv2D (0x103)            0.108      0.5%      ai_node_14   
   15      11     Conv2D (0x103)            0.373      1.6%      ai_node_15   
   16      12     Pad (0x116)               0.005      0.0%      ai_node_16   
   17      12     Conv2D (0x103)            0.219      0.9%      ai_node_17   
   18      13     Conv2D (0x103)            0.772      3.3%      ai_node_18   
   19      14     Pool (0x10b)              0.029      0.1%      ai_node_19   
   20      16     EltwiseInt (0x114)        0.033      0.1%      ai_node_20   
   21      16     NL (0x107)                0.011      0.0%      ai_node_21   
   22      24     Upsample (0x112)          0.004      0.0%      ai_node_22   
   23      24     NL (0x107)                0.027      0.1%      ai_node_23   
   24      25     Conv2D (0x103)            0.704      3.0%      ai_node_24   
   25      17     NL (0x107)                0.003      0.0%      ai_node_25   
   26      19     Pad (0x116)               0.002      0.0%      ai_node_26   
   27      19     Conv2D (0x103)            1.589      6.8%      ai_node_27   
   28      20     EltwiseInt (0x114)        0.075      0.3%      ai_node_28   
   29      22     Pad (0x116)               0.001      0.0%      ai_node_29   
   30      22     Conv2D (0x103)            1.576      6.8%      ai_node_30   
   31      22     NL (0x107)                0.012      0.0%      ai_node_31   
   32      23     Upsample (0x112)          0.004      0.0%      ai_node_32   
   33      23     NL (0x107)                0.027      0.1%      ai_node_33   
   34      26     EltwiseInt (0x114)        0.133      0.6%      ai_node_34   
   35      26     NL (0x107)                0.046      0.2%      ai_node_35   
   36      36     Upsample (0x112)          0.015      0.1%      ai_node_36   
   37      36     NL (0x107)                0.104      0.4%      ai_node_37   
   38      37     Conv2D (0x103)            1.396      6.0%      ai_node_38   
   39      27     NL (0x107)                0.010      0.0%      ai_node_39   
   40      31     Pad (0x116)               0.005      0.0%      ai_node_40   
   41      31     Conv2D (0x103)            3.164     13.6%      ai_node_41   
   42      32     EltwiseInt (0x114)        0.159      0.7%      ai_node_42   
   43      34     Pad (0x116)               0.003      0.0%      ai_node_43   
   44      34     Conv2D (0x103)            1.564      6.7%      ai_node_44   
   45      34     NL (0x107)                0.023      0.1%      ai_node_45   
   46      35     Upsample (0x112)          0.012      0.1%      ai_node_46   
   47      35     NL (0x107)                0.055      0.2%      ai_node_47   
   48      38     EltwiseInt (0x114)        0.268      1.1%      ai_node_48   
   49      38     NL (0x107)                0.089      0.4%      ai_node_49   
   50      48     Upsample (0x112)          0.046      0.2%      ai_node_50   
   51      48     NL (0x107)                0.213      0.9%      ai_node_51   
   52      49     Conv2D (0x103)            1.493      6.4%      ai_node_52   
   53      39     NL (0x107)                0.021      0.1%      ai_node_53   
   54      43     Pad (0x116)               0.008      0.0%      ai_node_54   
   55      43     Conv2D (0x103)            3.123     13.4%      ai_node_55   
   56      44     EltwiseInt (0x114)        0.308      1.3%      ai_node_56   
   57      46     Pad (0x116)               0.005      0.0%      ai_node_57   
   58      46     Conv2D (0x103)            1.629      7.0%      ai_node_58   
   59      46     NL (0x107)                0.045      0.2%      ai_node_59   
   60      47     Upsample (0x112)          0.030      0.1%      ai_node_60   
   61      47     NL (0x107)                0.105      0.5%      ai_node_61   
   62      50     EltwiseInt (0x114)        0.530      2.3%      ai_node_62   
   63      52     Conv2D (0x103)            0.636      2.7%      ai_node_63   
   64      53     NL (0x107)                0.002      0.0%      ai_node_64   
   ---------------------------------------------------------------------------
   total                                   23.279                             
   ---------------------------------------------------------------------------
   
   Statistic per tensor
   -----------------------------------------------------------------------
   tensor   shape/type            min   max      mean      std name       
   -----------------------------------------------------------------------
   I.0      (1,64,64,3)/uint8       0   255   127.377   73.567 input_1    
   O.0      (1,64,64,1)/uint8      36   179   107.003   16.398 output_1   
   -----------------------------------------------------------------------
 
Saving validation data...
 output directory: /home/master/.stm32cubemx/network_output
 creating /home/master/.stm32cubemx/network_output/network_val_io.npz
 m_outputs_1: (10, 64, 64, 1)/uint8, min/max=[33, 179], mean/std=[98.941, 16.484], conversion_53
 c_outputs_1: (10, 64, 64, 1)/uint8, min/max=[36, 179], mean/std=[107.003, 16.398], scale=0.00781250 zp=128, conversion_53

 
Computing the metrics...

 Cross accuracy report #1 (reference vs C-model)
 ----------------------------------------------------------------------------------------------------
 notes: - r/uint8 data are dequantized with s=0.007812 zp=128
        - p/uint8 data are dequantized with s=0.007812 zp=128
        - ACC metric is not computed ("--classifier" option can be used to force it)
        - the output of the reference model is used as ground truth/reference value
        - 10 samples (4096 items per sample)

  acc=n.a., rmse=0.187070802, mae=0.149470896, l2r=0.898772359, nse=-111.01%


Number of operations per c-layer
------- ------ -------------------------------------- ------------ -------------- --------- ---------- 
c_id    m_id   name (type)                                     #op           type    #param   sparsity 
------- ------ -------------------------------------- ------------ -------------- --------- ---------- 
0       0      conversion_0 (converter)                     24,576     smul_u8_s8           
1       1      conv2d_1 (optimized_conv2d)                 663,576     smul_s8_s8       672     0.0045 
2       3      conv2d_3_pad_before (pad)                         0     smul_s8_s8           
3       3      conv2d_3 (conv2d)                           221,208     smul_s8_s8       240     0.1000 
4       4      conv2d_4 (conv2d)                         1,179,696     smul_s8_s8     1,200     0.0025 
5       5      conv2d_5_pad_before (pad)                         0     smul_s8_s8           
6       5      conv2d_5 (conv2d)                           442,416     smul_s8_s8       480     0.1042 
7       6      conv2d_6 (conv2d)                         2,359,344     smul_s8_s8     2,352     0.0047 
8       7      pool_7 (pool)                               110,592       op_s8_s8           
9       2      conv2d_2 (conv2d)                           294,960     smul_s8_s8     1,200     0.0025 
10      8      eltwise_8 (eltwise_integer)                  12,288     smul_s8_s8           
11      15     conv2d_15 (conv2d)                          295,008     smul_s8_s8     4,704     0.0034 
12      9      nl_9 (nl)                                    12,288       op_s8_s8           
13      10     conv2d_10_pad_before (pad)                        0     smul_s8_s8           
14      10     conv2d_10 (conv2d)                          110,640     smul_s8_s8       480     0.1042 
15      11     conv2d_11 (conv2d)                        1,179,744     smul_s8_s8     4,704     0.0043 
16      12     conv2d_12_pad_before (pad)                        0     smul_s8_s8           
17      12     conv2d_12 (conv2d)                          221,280     smul_s8_s8       960     0.1021 
18      13     conv2d_13 (conv2d)                        2,359,392     smul_s8_s8     9,312     0.0042 
19      14     pool_14 (pool)                               55,296       op_s8_s8           
20      16     eltwise_16 (eltwise_integer)                  6,144     smul_s8_s8           
21      16     eltwise_16_0_conversion (converter)          12,288    smul_s8_f32           
22      24     upsample_24 (upsample)                            0   smul_f32_f32           
23      24     upsample_24_0_conversion (converter)         49,152    smul_f32_s8           
24      25     conv2d_25 (conv2d)                        2,359,392     smul_s8_s8     9,312     0.0042 
25      17     nl_17 (nl)                                    6,144       op_s8_s8           
26      19     conv2d_19_pad_before (pad)                        0     smul_s8_s8           
27      19     conv2d_19 (conv2d)                        5,308,512     smul_s8_s8    83,040     0.0067 
28      20     eltwise_20 (eltwise_integer)                  6,144     smul_s8_s8         0     0.0000 
29      22     conv2d_22_pad_before (pad)                        0     smul_s8_s8           
30      22     conv2d_22 (conv2d)                        5,308,512     smul_s8_s8    83,040     0.0062 
31      22     conv2d_22_0_conversion (converter)           12,288    smul_s8_f32           
32      23     upsample_23 (upsample)                            0   smul_f32_f32           
33      23     upsample_23_0_conversion (converter)         49,152    smul_f32_s8           
34      26     eltwise_26 (eltwise_integer)                 24,576     smul_s8_s8           
35      26     eltwise_26_0_conversion (converter)          49,152    smul_s8_f32           
36      36     upsample_36 (upsample)                            0   smul_f32_f32           
37      36     upsample_36_0_conversion (converter)        196,608    smul_f32_s8           
38      37     conv2d_37 (conv2d)                        4,718,640     smul_s8_s8     4,656     0.0037 
39      27     nl_27 (nl)                                   24,576       op_s8_s8           
40      31     conv2d_31_pad_before (pad)                        0     smul_s8_s8           
41      31     conv2d_31 (conv2d)                       10,616,880     smul_s8_s8    41,520     0.0065 
42      32     eltwise_32 (eltwise_integer)                 12,288     smul_s8_s8         0     0.0000 
43      34     conv2d_34_pad_before (pad)                        0     smul_s8_s8           
44      34     conv2d_34 (conv2d)                        5,308,464     smul_s8_s8    20,784     0.0059 
45      34     conv2d_34_0_conversion (converter)           24,576    smul_s8_f32           
46      35     upsample_35 (upsample)                            0   smul_f32_f32           
47      35     upsample_35_0_conversion (converter)         98,304    smul_f32_s8           
48      38     eltwise_38 (eltwise_integer)                 49,152     smul_s8_s8           
49      38     eltwise_38_0_conversion (converter)          98,304    smul_s8_f32           
50      48     upsample_48 (upsample)                            0   smul_f32_f32           
51      48     upsample_48_0_conversion (converter)        393,216    smul_f32_s8           
52      49     conv2d_49 (conv2d)                        4,718,616     smul_s8_s8     1,176     0.0060 
53      39     nl_39 (nl)                                   49,152       op_s8_s8           
54      43     conv2d_43_pad_before (pad)                        0     smul_s8_s8           
55      43     conv2d_43 (conv2d)                       10,616,856     smul_s8_s8    10,392     0.0083 
56      44     eltwise_44 (eltwise_integer)                 24,576     smul_s8_s8         0     0.0000 
57      46     conv2d_46_pad_before (pad)                        0     smul_s8_s8           
58      46     conv2d_46 (conv2d)                        5,308,440     smul_s8_s8     5,208     0.0109 
59      46     conv2d_46_0_conversion (converter)           49,152    smul_s8_f32           
60      47     upsample_47 (upsample)                            0   smul_f32_f32           
61      47     upsample_47_0_conversion (converter)        196,608    smul_f32_s8           
62      50     eltwise_50 (eltwise_integer)                 98,304     smul_s8_s8           
63      52     conv2d_51 (conv2d)                          888,833     smul_s8_s8       217     0.0000 
64      53     conversion_53 (converter)                     8,192     smul_s8_u8           
------- ------ -------------------------------------- ------------ -------------- --------- ---------- 
total                                                   66,233,497                  285,649     0.0070 

Number of operation types
---------------- ------------ ----------- 
operation type              #           % 
---------------- ------------ ----------- 
smul_u8_s8             24,576        0.0% 
smul_s8_s8         64,713,881       97.7% 
op_s8_s8              258,048        0.4% 
smul_s8_f32           245,760        0.4% 
smul_f32_f32                0        0.0% 
smul_f32_s8           983,040        1.5% 
smul_s8_u8              8,192        0.0% 

Complexity report (model)
------ ---------------------------------------------- ------------------------- ------------------------- -------------- -------- ------------------ 
m_id   name                                           c_macc                    c_rom                     c_id           c_dur    l2r (X-CROSS)      
------ ---------------------------------------------- ------------------------- ------------------------- -------------- -------- ------------------ 
0      serving_default_input0                         |                  0.0%   |                  0.0%   [0]              0.0%                      
1      conv2d_1                                       |                  1.0%   |                  0.3%   [1]              1.0%                      
2      conv2d_2                                       |                  0.4%   |                  0.5%   [9]              0.5%                      
3      conv2d_3                                       |                  0.3%   |                  0.1%   [2, 3]           1.0%                      
4      conv2d_4                                       ||                 1.8%   |                  0.5%   [4]              1.9%                      
5      conv2d_5                                       |                  0.7%   |                  0.2%   [5, 6]           1.9%                      
6      conv2d_6                                       ||||               3.6%   |                  0.9%   [7]              3.3%                      
7      pool_7                                         |                  0.2%   |                  0.0%   [8]              0.3%                      
8      eltwise_8                                      |                  0.0%   |                  0.0%   [10]             0.3%                      
9      nl_9                                           |                  0.0%   |                  0.0%   [12]             0.0%                      
10     conv2d_10                                      |                  0.2%   |                  0.2%   [13, 14]         0.5%                      
11     conv2d_11                                      ||                 1.8%   |                  1.7%   [15]             1.6%                      
12     conv2d_12                                      |                  0.3%   |                  0.4%   [16, 17]         1.0%                      
13     conv2d_13                                      ||||               3.6%   ||                 3.3%   [18]             3.3%                      
14     pool_14                                        |                  0.1%   |                  0.0%   [19]             0.1%                      
15     conv2d_15                                      |                  0.4%   |                  1.7%   [11]             0.4%                      
16     eltwise_16                                     |                  0.0%   |                  0.0%   [20, 21]         0.2%                      
17     nl_17                                          |                  0.0%   |                  0.0%   [25]             0.0%                      
19     conv2d_19                                      ||||||||           8.0%   ||||||||||||||||  28.9%   [26, 27]         6.8%                      
20     model_batch_normalization_5_FusedBatchNormV3   |                  0.0%   |                  0.0%   [28]             0.3%                      
22     conv2d_22                                      ||||||||           8.0%   ||||||||||||||||  28.9%   [29, 30, 31]     6.9%                      
23     upsample_23                                    |                  0.1%   |                  0.0%   [32, 33]         0.1%                      
24     upsample_24                                    |                  0.1%   |                  0.0%   [22, 23]         0.1%                      
25     conv2d_25                                      ||||               3.6%   ||                 3.3%   [24]             3.0%                      
26     eltwise_26                                     |                  0.1%   |                  0.0%   [34, 35]         0.8%                      
27     nl_27                                          |                  0.0%   |                  0.0%   [39]             0.0%                      
31     conv2d_31                                      ||||||||||||||||  16.0%   ||||||||          14.4%   [40, 41]        13.5%                      
32     model_batch_normalization_7_FusedBatchNormV3   |                  0.0%   |                  0.0%   [42]             0.7%                      
34     conv2d_34                                      ||||||||           8.1%   ||||               7.2%   [43, 44, 45]     6.8%                      
35     upsample_35                                    |                  0.1%   |                  0.0%   [46, 47]         0.3%                      
36     upsample_36                                    |                  0.3%   |                  0.0%   [36, 37]         0.5%                      
37     conv2d_37                                      |||||||            7.1%   |                  1.7%   [38]             6.0%                      
38     eltwise_38                                     |                  0.2%   |                  0.0%   [48, 49]         1.5%                      
39     nl_39                                          |                  0.1%   |                  0.0%   [53]             0.1%                      
43     conv2d_43                                      |||||||||||||||   16.0%   ||                 3.6%   [54, 55]        13.5%                      
44     model_batch_normalization_9_FusedBatchNormV3   |                  0.0%   |                  0.0%   [56]             1.3%                      
46     conv2d_46                                      ||||||||           8.1%   |                  1.8%   [57, 58, 59]     7.2%                      
47     upsample_47                                    |                  0.3%   |                  0.0%   [60, 61]         0.6%                      
48     upsample_48                                    |                  0.6%   |                  0.0%   [50, 51]         1.1%                      
49     conv2d_49                                      |||||||            7.1%   |                  0.4%   [52]             6.4%                      
50     eltwise_50                                     |                  0.1%   |                  0.0%   [62]             2.3%                      
52     nl_52                                          ||                 1.3%   |                  0.1%   [63]             2.7%                      
53     conversion_53                                  |                  0.0%   |                  0.0%   [64]             0.0%   9.58936024e-01 *   
------ ---------------------------------------------- ------------------------- ------------------------- -------------- -------- ------------------ 
macc=66,233,497 weights=288,676 act=1,032,192 ram_io=0

Evaluation report (summary)
---------------------------------------------------------------------------------------------------------------------------------------------------------
Output       acc    rmse        mae         l2r         mean         std         nse          cos         tensor                                         
---------------------------------------------------------------------------------------------------------------------------------------------------------
X-cross #1   n.a.   0.1870708   0.1494709   0.8987724   -0.0629822   0.1761519   -1.1101397   0.7036327   conversion_53, ai_u8, (1,64,64,1), m_id=[53]   
---------------------------------------------------------------------------------------------------------------------------------------------------------

 acc  : Classification accuracy (all classes)
 rmse : Root Mean Squared Error
 mae  : Mean Absolute Error
 l2r  : L2 relative error
 nse  : Nash-Sutcliffe efficiency criteria
 cos  : COsine Similarity
